…
Average actions of items: 11.541397590361445
The number of inters: 359226
The sparsity of the dataset: 99.96786750899484%
Remain Fields: ['user_id', 'item_id', 'timestamp', 'item_emb']
Sat 09 Nov 2024 21:41:26 INFO  [Training]: train_batch_size = [256] train_neg_sample_args: [{'distribution': 'none', 'sample_num': 'none', 'alpha': 'none', 'dynamic': False, 'candidate_num': 0}]
Sat 09 Nov 2024 21:41:26 INFO  [Evaluation]: eval_batch_size = [4096] eval_args: [{'split': {'LS': 'valid_and_test'}, 'order': 'TO', 'group_by': 'user', 'mode': {'valid': 'uni99', 'test': 'uni99'}}]
Sat 09 Nov 2024 21:41:45 INFO  CATSR(
  (item_embedding): Embedding(31126, 768)
  (position_embedding): Embedding(50, 768)
  (trm_encoder): TransformerSingleEncoder(
    (layer): TransformerSingleLayer(
      (multi_head_attention): MultiHeadAttentionSingleLayer(
        (query): Linear(in_features=768, out_features=768, bias=True)
        (key): Linear(in_features=768, out_features=768, bias=True)
        (value): Linear(in_features=768, out_features=768, bias=True)
        (softmax): Softmax(dim=-1)
        (attn_dropout): Dropout(p=0.5, inplace=False)
        (dense): Linear(in_features=768, out_features=768, bias=True)
        (LayerNorm): LayerNorm((768,), eps=1e-12, elementwise_affine=True)
        (out_dropout): Dropout(p=0.5, inplace=False)
      )
      (feed_forward): FeedForward(
        (dense_1): Linear(in_features=768, out_features=256, bias=True)
        (dense_2): Linear(in_features=256, out_features=768, bias=True)
        (LayerNorm): LayerNorm((768,), eps=1e-12, elementwise_affine=True)
        (dropout): Dropout(p=0.5, inplace=False)
      )
    )
  )
  (LayerNorm): LayerNorm((768,), eps=1e-12, elementwise_affine=True)
  (dropout): Dropout(p=0.5, inplace=False)
)
Trainable parameters: 2799616
Sat 09 Nov 2024 21:42:05 INFO  epoch 0 training [time: 20.54s, train loss: 11735.2894]
Sat 09 Nov 2024 21:42:23 INFO  epoch 1 training [time: 17.81s, train loss: 9681.1997]
Sat 09 Nov 2024 21:42:41 INFO  epoch 2 training [time: 18.21s, train loss: 9609.0234]
Sat 09 Nov 2024 21:43:00 INFO  epoch 3 training [time: 19.03s, train loss: 9570.0396]
…
